…
model.add(MaxPooling2D(pool_size=(2,2)))

model.add(Flatten())

model.add(Dense(100,activation='relu'))

model.add(Dense(2,activation='softmax'))

model.summary()
WARNING:tensorflow:From /home/vinit/anaconda3/lib/python3.7/site-packages/keras/backend/tensorflow_backend.py:4070: The name tf.nn.max_pool is deprecated. Please use tf.nn.max_pool2d instead.

Model: "sequential_1"
_________________________________________________________________
Layer (type)                 Output Shape              Param #   
=================================================================
conv2d_1 (Conv2D)            (None, 218, 218, 32)      4736      
_________________________________________________________________
max_pooling2d_1 (MaxPooling2 (None, 109, 109, 32)      0         
_________________________________________________________________
conv2d_2 (Conv2D)            (None, 105, 105, 16)      12816     
_________________________________________________________________
max_pooling2d_2 (MaxPooling2 (None, 52, 52, 16)        0         
_________________________________________________________________
conv2d_3 (Conv2D)            (None, 50, 50, 16)        2320      
_________________________________________________________________
max_pooling2d_3 (MaxPooling2 (None, 25, 25, 16)        0         
_________________________________________________________________
flatten_1 (Flatten)          (None, 10000)             0         
_________________________________________________________________
dense_1 (Dense)              (None, 100)               1000100   
_________________________________________________________________
dense_2 (Dense)              (None, 2)                 202       
=================================================================
Total params: 1,020,174
Trainable params: 1,020,174
Non-trainable params: 0
_________________________________________________________________
model.compile(loss='sparse_categorical_crossentropy',optimizer='adam',metrics=['accuracy'])
model.fit(train_inputs,train_labels,batch_size=64,epochs=1,validation_data=(valid_inputs,valid_labels))
…
